…
Namespace(buffer_replacement_strategy='random', config_name='TDIUC_streaming', data_order=None, expt_name='TDIUC_streaming_qtype_2e-3', full=False, icarl=False, lr=0.002, max_buffer_size=None, network='mcan', offline=True, rehearsal_mode=None, remind_compressed_features=False, remind_features=False, remind_original_data=False, sampling_method='random', stream=False)
Building Dataloaders !
Loading Train Data !
Filtering Train Data !
Loading Test Data
Filtering Test Data
main.py:525: YAMLLoadWarning: calling yaml.load() without Loader=... is deprecated, as the default Loader is unsafe. Please read https://msg.pyyaml.org/load for full details.
  yaml_dict = yaml.load(f)
Net(
  (embedding): Embedding(9318, 300)
  (lstm): LSTM(300, 512, batch_first=True)
  (img_feat_linear): Linear(in_features=2048, out_features=512, bias=True)
  (backbone): MCA_ED(
    (enc_list): ModuleList(
      (0): SA(
        (mhatt): MHAtt(
          (linear_v): Linear(in_features=512, out_features=512, bias=True)
          (linear_k): Linear(in_features=512, out_features=512, bias=True)
          (linear_q): Linear(in_features=512, out_features=512, bias=True)
          (linear_merge): Linear(in_features=512, out_features=512, bias=True)
          (dropout): Dropout(p=0.1, inplace=False)
        )
        (ffn): FFN(
          (mlp): MLP(
            (fc): FC(
              (linear): Linear(in_features=512, out_features=2048, bias=True)
              (relu): ReLU(inplace=True)
              (dropout): Dropout(p=0.1, inplace=False)
            )
            (linear): Linear(in_features=2048, out_features=512, bias=True)
          )
        )
        (dropout1): Dropout(p=0.1, inplace=False)
        (norm1): LayerNorm()
        (dropout2): Dropout(p=0.1, inplace=False)
        (norm2): LayerNorm()
      )
      (1): SA(
        (mhatt): MHAtt(
          (linear_v): Linear(in_features=512, out_features=512, bias=True)
          (linear_k): Linear(in_features=512, out_features=512, bias=True)
          (linear_q): Linear(in_features=512, out_features=512, bias=True)
          (linear_merge): Linear(in_features=512, out_features=512, bias=True)
          (dropout): Dropout(p=0.1, inplace=False)
        )
        (ffn): FFN(
          (mlp): MLP(
            (fc): FC(
              (linear): Linear(in_features=512, out_features=2048, bias=True)
              (relu): ReLU(inplace=True)
              (dropout): Dropout(p=0.1, inplace=False)
            )
            (linear): Linear(in_features=2048, out_features=512, bias=True)
          )
        )
        (dropout1): Dropout(p=0.1, inplace=False)
        (norm1): LayerNorm()
        (dropout2): Dropout(p=0.1, inplace=False)
        (norm2): LayerNorm()
      )
      (2): SA(
        (mhatt): MHAtt(
          (linear_v): Linear(in_features=512, out_features=512, bias=True)
          (linear_k): Linear(in_features=512, out_features=512, bias=True)
          (linear_q): Linear(in_features=512, out_features=512, bias=True)
          (linear_merge): Linear(in_features=512, out_features=512, bias=True)
          (dropout): Dropout(p=0.1, inplace=False)
        )
        (ffn): FFN(
          (mlp): MLP(
            (fc): FC(
              (linear): Linear(in_features=512, out_features=2048, bias=True)
              (relu): ReLU(inplace=True)
              (dropout): Dropout(p=0.1, inplace=False)
            )
            (linear): Linear(in_features=2048, out_features=512, bias=True)
          )
        )
        (dropout1): Dropout(p=0.1, inplace=False)
        (norm1): LayerNorm()
        (dropout2): Dropout(p=0.1, inplace=False)
        (norm2): LayerNorm()
      )
      (3): SA(
        (mhatt): MHAtt(
          (linear_v): Linear(in_features=512, out_features=512, bias=True)
          (linear_k): Linear(in_features=512, out_features=512, bias=True)
          (linear_q): Linear(in_features=512, out_features=512, bias=True)
          (linear_merge): Linear(in_features=512, out_features=512, bias=True)
          (dropout): Dropout(p=0.1, inplace=False)
        )
        (ffn): FFN(
          (mlp): MLP(
            (fc): FC(
              (linear): Linear(in_features=512, out_features=2048, bias=True)
              (relu): ReLU(inplace=True)
              (dropout): Dropout(p=0.1, inplace=False)
            )
            (linear): Linear(in_features=2048, out_features=512, bias=True)
          )
        )
        (dropout1): Dropout(p=0.1, inplace=False)
        (norm1): LayerNorm()
        (dropout2): Dropout(p=0.1, inplace=False)
        (norm2): LayerNorm()
      )
      (4): SA(
        (mhatt): MHAtt(
          (linear_v): Linear(in_features=512, out_features=512, bias=True)
          (linear_k): Linear(in_features=512, out_features=512, bias=True)
          (linear_q): Linear(in_features=512, out_features=512, bias=True)
          (linear_merge): Linear(in_features=512, out_features=512, bias=True)
          (dropout): Dropout(p=0.1, inplace=False)
        )
        (ffn): FFN(
          (mlp): MLP(
            (fc): FC(
              (linear): Linear(in_features=512, out_features=2048, bias=True)
              (relu): ReLU(inplace=True)
              (dropout): Dropout(p=0.1, inplace=False)
            )
            (linear): Linear(in_features=2048, out_features=512, bias=True)
          )
        )
        (dropout1): Dropout(p=0.1, inplace=False)
        (norm1): LayerNorm()
        (dropout2): Dropout(p=0.1, inplace=False)
        (norm2): LayerNorm()
      )
      (5): SA(
        (mhatt): MHAtt(
          (linear_v): Linear(in_features=512, out_features=512, bias=True)
          (linear_k): Linear(in_features=512, out_features=512, bias=True)
          (linear_q): Linear(in_features=512, out_features=512, bias=True)
          (linear_merge): Linear(in_features=512, out_features=512, bias=True)
          (dropout): Dropout(p=0.1, inplace=False)
        )
        (ffn): FFN(
          (mlp): MLP(
            (fc): FC(
              (linear): Linear(in_features=512, out_features=2048, bias=True)
              (relu): ReLU(inplace=True)
              (dropout): Dropout(p=0.1, inplace=False)
            )
            (linear): Linear(in_features=2048, out_features=512, bias=True)
          )
        )
        (dropout1): Dropout(p=0.1, inplace=False)
        (norm1): LayerNorm()
        (dropout2): Dropout(p=0.1, inplace=False)
        (norm2): LayerNorm()
      )
    )
    (dec_list): ModuleList(
      (0): SGA(
        (mhatt1): MHAtt(
          (linear_v): Linear(in_features=512, out_features=512, bias=True)
          (linear_k): Linear(in_features=512, out_features=512, bias=True)
          (linear_q): Linear(in_features=512, out_features=512, bias=True)
          (linear_merge): Linear(in_features=512, out_features=512, bias=True)
          (dropout): Dropout(p=0.1, inplace=False)
        )
        (mhatt2): MHAtt(
          (linear_v): Linear(in_features=512, out_features=512, bias=True)
          (linear_k): Linear(in_features=512, out_features=512, bias=True)
          (linear_q): Linear(in_features=512, out_features=512, bias=True)
          (linear_merge): Linear(in_features=512, out_features=512, bias=True)
          (dropout): Dropout(p=0.1, inplace=False)
        )
        (ffn): FFN(
          (mlp): MLP(
            (fc): FC(
              (linear): Linear(in_features=512, out_features=2048, bias=True)
              (relu): ReLU(inplace=True)
              (dropout): Dropout(p=0.1, inplace=False)
            )
            (linear): Linear(in_features=2048, out_features=512, bias=True)
          )
        )
        (dropout1): Dropout(p=0.1, inplace=False)
        (norm1): LayerNorm()
        (dropout2): Dropout(p=0.1, inplace=False)
        (norm2): LayerNorm()
        (dropout3): Dropout(p=0.1, inplace=False)
        (norm3): LayerNorm()
      )
      (1): SGA(
        (mhatt1): MHAtt(
          (linear_v): Linear(in_features=512, out_features=512, bias=True)
          (linear_k): Linear(in_features=512, out_features=512, bias=True)
          (linear_q): Linear(in_features=512, out_features=512, bias=True)
          (linear_merge): Linear(in_features=512, out_features=512, bias=True)
          (dropout): Dropout(p=0.1, inplace=False)
        )
        (mhatt2): MHAtt(
          (linear_v): Linear(in_features=512, out_features=512, bias=True)
          (linear_k): Linear(in_features=512, out_features=512, bias=True)
          (linear_q): Linear(in_features=512, out_features=512, bias=True)
          (linear_merge): Linear(in_features=512, out_features=512, bias=True)
          (dropout): Dropout(p=0.1, inplace=False)
        )
        (ffn): FFN(
          (mlp): MLP(
            (fc): FC(
              (linear): Linear(in_features=512, out_features=2048, bias=True)
              (relu): ReLU(inplace=True)
              (dropout): Dropout(p=0.1, inplace=False)
            )
            (linear): Linear(in_features=2048, out_features=512, bias=True)
          )
        )
        (dropout1): Dropout(p=0.1, inplace=False)
        (norm1): LayerNorm()
        (dropout2): Dropout(p=0.1, inplace=False)
        (norm2): LayerNorm()
        (dropout3): Dropout(p=0.1, inplace=False)
        (norm3): LayerNorm()
      )
      (2): SGA(
        (mhatt1): MHAtt(
          (linear_v): Linear(in_features=512, out_features=512, bias=True)
          (linear_k): Linear(in_features=512, out_features=512, bias=True)
          (linear_q): Linear(in_features=512, out_features=512, bias=True)
          (linear_merge): Linear(in_features=512, out_features=512, bias=True)
          (dropout): Dropout(p=0.1, inplace=False)
        )
        (mhatt2): MHAtt(
          (linear_v): Linear(in_features=512, out_features=512, bias=True)
          (linear_k): Linear(in_features=512, out_features=512, bias=True)
          (linear_q): Linear(in_features=512, out_features=512, bias=True)
          (linear_merge): Linear(in_features=512, out_features=512, bias=True)
          (dropout): Dropout(p=0.1, inplace=False)
        )
        (ffn): FFN(
          (mlp): MLP(
            (fc): FC(
              (linear): Linear(in_features=512, out_features=2048, bias=True)
              (relu): ReLU(inplace=True)
              (dropout): Dropout(p=0.1, inplace=False)
            )
            (linear): Linear(in_features=2048, out_features=512, bias=True)
          )
        )
        (dropout1): Dropout(p=0.1, inplace=False)
        (norm1): LayerNorm()
        (dropout2): Dropout(p=0.1, inplace=False)
        (norm2): LayerNorm()
        (dropout3): Dropout(p=0.1, inplace=False)
        (norm3): LayerNorm()
      )
      (3): SGA(
        (mhatt1): MHAtt(
          (linear_v): Linear(in_features=512, out_features=512, bias=True)
          (linear_k): Linear(in_features=512, out_features=512, bias=True)
          (linear_q): Linear(in_features=512, out_features=512, bias=True)
          (linear_merge): Linear(in_features=512, out_features=512, bias=True)
          (dropout): Dropout(p=0.1, inplace=False)
        )
        (mhatt2): MHAtt(
          (linear_v): Linear(in_features=512, out_features=512, bias=True)
          (linear_k): Linear(in_features=512, out_features=512, bias=True)
          (linear_q): Linear(in_features=512, out_features=512, bias=True)
          (linear_merge): Linear(in_features=512, out_features=512, bias=True)
          (dropout): Dropout(p=0.1, inplace=False)
        )
        (ffn): FFN(
          (mlp): MLP(
            (fc): FC(
              (linear): Linear(in_features=512, out_features=2048, bias=True)
              (relu): ReLU(inplace=True)
              (dropout): Dropout(p=0.1, inplace=False)
            )
            (linear): Linear(in_features=2048, out_features=512, bias=True)
          )
        )
        (dropout1): Dropout(p=0.1, inplace=False)
        (norm1): LayerNorm()
        (dropout2): Dropout(p=0.1, inplace=False)
        (norm2): LayerNorm()
        (dropout3): Dropout(p=0.1, inplace=False)
        (norm3): LayerNorm()
      )
      (4): SGA(
        (mhatt1): MHAtt(
          (linear_v): Linear(in_features=512, out_features=512, bias=True)
          (linear_k): Linear(in_features=512, out_features=512, bias=True)
          (linear_q): Linear(in_features=512, out_features=512, bias=True)
          (linear_merge): Linear(in_features=512, out_features=512, bias=True)
          (dropout): Dropout(p=0.1, inplace=False)
        )
        (mhatt2): MHAtt(
          (linear_v): Linear(in_features=512, out_features=512, bias=True)
          (linear_k): Linear(in_features=512, out_features=512, bias=True)
          (linear_q): Linear(in_features=512, out_features=512, bias=True)
          (linear_merge): Linear(in_features=512, out_features=512, bias=True)
          (dropout): Dropout(p=0.1, inplace=False)
        )
        (ffn): FFN(
          (mlp): MLP(
            (fc): FC(
              (linear): Linear(in_features=512, out_features=2048, bias=True)
              (relu): ReLU(inplace=True)
              (dropout): Dropout(p=0.1, inplace=False)
            )
            (linear): Linear(in_features=2048, out_features=512, bias=True)
          )
        )
        (dropout1): Dropout(p=0.1, inplace=False)
        (norm1): LayerNorm()
        (dropout2): Dropout(p=0.1, inplace=False)
        (norm2): LayerNorm()
        (dropout3): Dropout(p=0.1, inplace=False)
        (norm3): LayerNorm()
      )
      (5): SGA(
        (mhatt1): MHAtt(
          (linear_v): Linear(in_features=512, out_features=512, bias=True)
          (linear_k): Linear(in_features=512, out_features=512, bias=True)
          (linear_q): Linear(in_features=512, out_features=512, bias=True)
          (linear_merge): Linear(in_features=512, out_features=512, bias=True)
          (dropout): Dropout(p=0.1, inplace=False)
        )
        (mhatt2): MHAtt(
          (linear_v): Linear(in_features=512, out_features=512, bias=True)
          (linear_k): Linear(in_features=512, out_features=512, bias=True)
          (linear_q): Linear(in_features=512, out_features=512, bias=True)
          (linear_merge): Linear(in_features=512, out_features=512, bias=True)
          (dropout): Dropout(p=0.1, inplace=False)
        )
        (ffn): FFN(
          (mlp): MLP(
            (fc): FC(
              (linear): Linear(in_features=512, out_features=2048, bias=True)
              (relu): ReLU(inplace=True)
              (dropout): Dropout(p=0.1, inplace=False)
            )
            (linear): Linear(in_features=2048, out_features=512, bias=True)
          )
        )
        (dropout1): Dropout(p=0.1, inplace=False)
        (norm1): LayerNorm()
        (dropout2): Dropout(p=0.1, inplace=False)
        (norm2): LayerNorm()
        (dropout3): Dropout(p=0.1, inplace=False)
        (norm3): LayerNorm()
      )
    )
  )
  (attflat_img): AttFlat(
    (mlp): MLP(
      (fc): FC(
        (linear): Linear(in_features=512, out_features=512, bias=True)
        (relu): ReLU(inplace=True)
        (dropout): Dropout(p=0.1, inplace=False)
      )
      (linear): Linear(in_features=512, out_features=1, bias=True)
    )
    (linear_merge): Linear(in_features=512, out_features=1024, bias=True)
  )
  (attflat_lang): AttFlat(
    (mlp): MLP(
      (fc): FC(
        (linear): Linear(in_features=512, out_features=512, bias=True)
        (relu): ReLU(inplace=True)
        (dropout): Dropout(p=0.1, inplace=False)
      )
      (linear): Linear(in_features=512, out_features=1, bias=True)
    )
    (linear_merge): Linear(in_features=512, out_features=1024, bias=True)
  )
  (proj_norm): LayerNorm()
  (proj): Linear(in_features=1024, out_features=188, bias=True)
)
Using lr specified in args 0.002
{
    "buffer_replacement_strategy": "random",
    "config_name": "TDIUC_streaming",
    "data_order": null,
    "expt_name": "TDIUC_streaming_qtype_2e-3",
    "full": false,
    "icarl": false,
    "lr": 0.002,
    "max_buffer_size": null,
    "network": "mcan",
    "offline": true,
    "rehearsal_mode": null,
    "remind_compressed_features": false,
…
